assets/models/text_classification_model.tflite (tflite, 68472 bytes, 3 tensors)

arith.constant f4 [3, 24]
00000000: 92e3 84be 9106 c03e 68d4 b1be 98e3 013d
00000010: 81b1 ab3e 9c03 c43d 6065 b4bd 9410 b73d
00000020: f688 043e 1d1b ba3e 8d0c ec3e e0e9 e9bd
00000030: b63a 3dbe 5807 abbd 5b68 ec3e 00ba cf3a
00000040: bedb 88be 6cdd e73d 4852 3e3d 54a4 ad3d
00000050: 28e2 cfbd 5cc6 3dbe 584c 613d 8f73 b83e
00000060: 4006 3bbc c850 cfbe a49c bb3d a4ea 28be
00000070: 001b b13c 0c44 ffbd 5866 e7bd 1674 633e
00000080: 1b35 9fbe 82c8 91be c072 66bd 84d7 df3d
00000090: 0aa3 dbbe 3847 4ebd 821b 2fbe 66c4 43be
000000a0: 6080 8ebc ee3a a2be 10ce 03bd 704b 92bc
000000b0: 8bcf a53e 2537 933e 48ca 683d 86ea 453e
000000c0: a0f1 43be 0960 af3e 2b69 a0be f0a0 1dbe
000000d0: 45a9 d23e 7fb0 e5be 4021 e0be b8df 37be
000000e0: 7def bd3e 3d61 82be 7e62 d6be 0078 a4b9
000000f0: ac5b 3abe 62c3 033e b957 a53e 4c6a e03d
00000100: 98e1 5a3d 75f5 de3e 89c5 b53e 8fb0 66be
00000110: d2dd 693e 2d43 ed3e 6471 2ebe ef0a 993e
-0.25954872 0.3750501 -0.34732366 0.03171119 0.33533862 0.09571001 -0.08808398 0.08938709
0.12942871 0.3634881 0.46103325 -0.11421561 -0.18479428 -0.0835101 0.46173367 0.0015848279
-0.2673015 0.1132153 0.04646519 0.08478609 -0.10150558 -0.185327 0.055004448 0.36025664
-0.011415064 -0.4049132 0.09160736 -0.16495758 0.02161932 -0.12464151 -0.112988174 0.22212252
-0.31095204 -0.28473288 -0.056261778 0.10929778 -0.42897826 -0.05036089 -0.17100337 -0.19117889
-0.017395198 -0.31685585 -0.03217894 -0.017858237 0.32384905 0.2875301 0.056833535 0.19327745
-0.19135141 0.34252957 -0.31330237 -0.15393424 0.41144767 -0.44861218 -0.43775368 -0.17956436
0.37096778 -0.25464812 -0.4187202 -0.00031369925 -0.18199033 0.12867501 0.3229349 0.109577745
0.0534378 0.43546644 0.3550227 -0.2252829 0.22838524 0.46340314 -0.17035443 0.29891154

arith.constant1 f4 [24, 16]
00000000: 63f8 5cbe 98c7 c3bd 3869 9dbe ff56 32be
00000010: 41f4 b3be 187d 663e d483 263e 48e2 2dbe
00000020: 18d0 9b3d 889d 933e aca2 8cbe 6c0b 7e3e
00000030: 4373 6abe 88a0 b7be aa85 9bbe 24b0 033e
00000040: 3223 9c3e 375e 73be e01b b4bc 1c82 b3be
00000050: 44ec 703e e23a c43e 439c acbe 3196 88be
00000060: ac70 80be 1c6a bbbe c802 b2bd f04c b03d
00000070: 0a91 c0be 4c2c 883e 00aa 84bd 4870 e8bd
00000080: c479 9bbe 8823 c3bd d379 20be 56a7 8f3e
00000090: ca13 993e 7419 c1be 44b9 2bbe 8cd5 d0bd
000000a0: ac86 a9bd c829 5abd 20af 8cbe cf65 2cbe
000000b0: 0550 5fbe 606f 63bc 6a77 b73e 8c6b 153e
000000c0: 6096 79be 4af0 863e b0bd 943e 803a 0f3b
000000d0: 63ff 35be b216 6fbe b075 a73e c069 3d3e
000000e0: 062b 893e 9003 64bd 630a 85be 20e0 5d3d
000000f0: 1387 67be 00df ed3b e02d 623c 908a 7a3e
00000100: 1c95 90be 6787 0ebe cd07 73be ac0c d73d
00000110: 8cc4 31be f72f 0dbe 1c1b e63d e0ff 42be
00000120: 2b0b 63be 049c 57be c491 89be f8a9 40bd
00000130: 1842 30bd 886c f93d bcb6 16be e8fd 9e3e
00000140: 58d5 6e3e 745f 583e 38f1 84bd 0ea8 96be
00000150: 5027 85be 264c a53e a814 40be fc22 853d
00000160: ecf8 a9be 00bb 9e3a 4a57 85be b038 fe3d
00000170: 475a 47be 4ca9 97bd d069 a63e 58cb a33d
00000180: 4c1e 1fbe 37be 4abe 100b 333e ec74 a63e
00000190: 9401 a5be 98d6 c53e 36c1 77be fdc5 abbe
000001a0: 4ef1 b7be 2003 383e a010 1a3d c4eb 5abe
000001b0: 6004 91be fae0 c2be 279d 89be 927c 62be
000001c0: b06e 193e 7d81 a9be 42d5 96be 4281 37be
000001d0: c0cb 1dbe 6865 6abd 0080 5239 8c3d 873e
000001e0: f847 a63d 1493 153e f48d 673e da4f 94be
000001f0: 7191 24be 2833 9d3d c423 193e 14a8 3a3e
00000200: 60d9 28be 11ab bebe 6ea6 58be 32d5 ac3e
00000210: 2666 7dbe 58d8 c4be 98b3 1f3d 6303 4fbe
00000220: c80c 0a3e 02ce 8abe 357f a2be 50c7 80bd
00000230: 2a9d 08be e6e7 80be 3146 70be 8e3d 8fbe
00000240: 889f 98bd 2baf bbbe c8b1 a43e b694 aabe
00000250: 770e 2abe 1072 65bd 587c 903d 067a 873e
00000260: eca7 163e 4079 41bd a045 b03d a35b 59be
00000270: 70f3 03be fbff 87be 1031 493d 550a b4be
00000280: 562e 8ebe 09f8 8cbe 8c3d a8be a084 853e
00000290: 7002 f43d c0b4 a83d 3d7f 1ebe ffd4 babe
000002a0: 308c 03bd e0b2 3e3d 7883 613d 2633 b33e
000002b0: f8d8 5fbd a452 ab3d e0ba 7e3d b8a8 61be
000002c0: b0c0 babe c033 fc3d 847c 383e 4a4c b6be
000002d0: ee4d 923e 70b9 bd3d 1105 8cbe f03b 673e
000002e0: 11c9 a1be e6d5 9e3e 6a03 66be 04bb 043e
000002f0: d8b3 a5be c457 1e3e 502b 3b3e 86d9 c03e
00000300: 386c abbe cc4c 023e 5b8a 53be f54f 78be
00000310: 037f 33be 9fb1 37be e01f 8dbd 4516 44be
00000320: 306e db3d 6a30 a73e f486 b3be 5822 9abe
00000330: 932c b2be e050 0dbd 5808 3bbd 98d2 653d
00000340: 729b 3cbe 48e9 edbd a84f 073e bef2 39be
00000350: 9097 b33d 4e67 a63e ce8e 24be acde 103e
00000360: a1dc 0dbe c81b 943e 1e6c 7abe 2881 963e
00000370: 4867 d33d 5f5d b4be b8b4 763e 049b 003e
00000380: 98a6 dc3d c810 893e 4699 bebe 4048 dfbd
00000390: c241 3bbe d8bc fd3d 1aee a3be 6202 a43e
000003a0: a018 773c 9c85 883e 8066 66bc a09f ba3d
000003b0: dce1 3b3e c024 5f3d 4279 a93e 38bc 143e
000003c0: c3b5 acbe 349c 963e d231 c5be 509f b93e
000003d0: d06b ba3e a8d3 fa3d f012 9d3e 56b2 98be
000003e0: 79d6 babe a01d 373e da16 b3be 6cc3 8f3e
000003f0: 9c9b 2b3e 501e 96bd f009 99bc 76ee 943e
-0.21579127 -0.09559554 -0.30744338 -0.17415999 -0.35147288 0.22508657 0.16261226 -0.1698085
0.0760805 0.28831124 -0.2746786 0.24809045 -0.22895531 -0.35864663 -0.30375415 0.12860161
0.30495602 -0.23766409 -0.021985948 -0.35060203 0.23527628 0.38326174 -0.33712968 -0.26677087
-0.25085962 -0.36604393 -0.08691937 0.08608425 -0.37610656 0.26596296 -0.064777374 -0.11349541
-0.30366337 -0.095282614 -0.15671472 0.28057355 0.2989791 -0.37714732 -0.16769892 -0.10196981
-0.0827764 -0.053262502 -0.2747736 -0.16835712 -0.21807869 -0.013881534 0.35833293 0.14591807
-0.2437377 0.263552 0.2905097 0.0021854937 -0.17773204 -0.23348501 0.32706976 0.18497372
0.26790637 -0.05566746 -0.25984487 0.05416882 -0.2261012 0.0072592497 0.013804883 0.2446692
-0.2823876 -0.1391884 -0.23733445 0.10500464 -0.17360133 -0.13787828 0.112356395 -0.19042921
-0.22172229 -0.21055609 -0.26869023 -0.047037095 -0.043031782 0.12178904 -0.14718145 0.3105309
0.23323572 0.21130162 -0.06491321 -0.2942509 -0.26006556 0.3228466 -0.1875788 0.06500813
-0.33197725 0.0012110174 -0.2604316 0.12413156 -0.19468032 -0.07405338 0.32502604 0.07997769
-0.15538901 -0.19799124 0.17484689 0.3251108 -0.32227767 0.38640285 -0.24194798 -0.3354949
-0.35926288 0.17969942 0.03761351 -0.21379 -0.2832365 -0.38062268 -0.2687771 -0.22117832
0.1498363 -0.33106604 -0.29459578 -0.17920402 -0.15409756 -0.057225615 0.00020074844 0.26414144
0.08119196 0.14606887 0.22612745 -0.28967172 -0.16071106 0.07675773 0.1495505 0.18228179
-0.16489172 -0.37239888 -0.21157238 0.33756405 -0.24745998 -0.38446307 0.038989633 -0.20216136
0.13481438 -0.27110296 -0.31737676 -0.06288016 -0.13341203 -0.25176924 -0.23464276 -0.2797665
-0.07452303 -0.3665708 0.32166886 -0.33316582 -0.1660708 -0.05601698 0.07054967 0.26460284
0.14712495 -0.047234774 0.0860703 -0.21226363 -0.12885833 -0.26562485 0.049119055 -0.35164133
-0.27769727 -0.27532986 -0.32859457 0.26077747 0.119145274 0.082376 -0.15478225 -0.36490628
-0.032116115 0.046557307 0.05505702 0.3499996 -0.054650277 0.08365372 0.062189937 -0.22037017
-0.36475134 0.12314558 0.18016249 -0.3560508 0.2857508 0.09263885 -0.27347615 0.22581458
-0.31598714 0.31022567 -0.2246224 0.12961966 -0.32363772 0.15463167 0.18278241 0.37665957
-0.33481002 0.12724608 -0.20658247 -0.24249251 -0.1752892 -0.17938851 -0.06890845 -0.1914912
0.10714376 0.32654124 -0.350639 -0.30104327 -0.34799632 -0.034500957 -0.045662254 0.05610904
-0.18418673 -0.116167605 0.1321398 -0.18159005 0.08769143 0.3250069 -0.160701 0.14147443
-0.13853694 0.28927445 -0.24455306 0.29395413 0.10322434 -0.35227486 0.24092376 0.12559134
0.10773963 0.26770616 -0.37226313 -0.109024525 -0.18286803 0.12389535 -0.32017595 0.32033068
0.015081555 0.26664436 -0.014062524 0.09112477 0.18347877 0.054478407 0.33100325 0.14524925
-0.33732423 0.2941605 -0.38514572 0.36254358 0.3641038 0.122474015 0.3067851 -0.2982356
-0.36491755 0.17882395 -0.34978372 0.28078783 0.16758579 -0.073300004 -0.018681496 0.2908818

arith.constant2 f4 [1000, 16]
00000000: 809f d4bc 8c24 283c 00f6 d6bb 12f5 953c
00000010: e382 463d 76d0 03bd 0052 d2bb dd1f 0fbd
00000020: 6652 fc3c 67ed f9bc 6640 8dbc b0fb ffbb
00000030: cc46 653c c6f0 823c c000 61bc dd9f 3bbd
00000040: 8022 98bb 3075 b9bb c32b 4abd 206c 8bbc
00000050: d0c0 86bb 7359 1b3d 831d 353d c0f8 93bc
00000060: 36e2 17bd 7a9d 01bd b2aa 943c fa48 823c
00000070: 46ac 23bd 91c8 223d 5a7c f0bc add2 c3bc
00000080: 80b2 863b a640 24bd 001d e9bc 53f7 3f3d
00000090: 4e3c c43c 9ac0 be3c dc35 703c a92d 3d3d
000000a0: 6698 a03c 4081 1bbc 6cbe 80bc 4007 c6ba
000000b0: b67b 24bd e859 84bb 2d37 453d 6ada 23bd
000000c0: 469d a93c da76 32bd 80d1 3abc d0e2 a1bb
000000d0: c068 5fba 00a3 7339 6eb5 df3c 4723 0f3d
000000e0: 6d46 34bd 3a8b fdbc 8d95 2dbd facd 983c
000000f0: 3006 b33b 23db 0a3d b3b9 3f3d c071 33bd
00000100: e7bb abbc d31e 15bd 5a01 d23c 6e0b cf3c
00000110: 6ddc 203d ecdb 88bc 0ce9 093c 9a00 d53c
00000120: e80f 483c 0c1a 4e3c 3279 973c 58c1 1dbc
00000130: b091 fbbb ee11 ea3c 532d 2d3d 320d fc3c
00000140: e8d4 54bc 8ddc 163d ba61 b1bc 3a76 c7bc
00000150: 6292 8a3c 0028 f23b ba21 1ebd 09fb 413d
00000160: c224 e93c 8089 d039 9dd2 12bd b63e 00bd
00000170: a649 fd3c 8d5f 2d3d 06a7 02bd d3fc f7bc
00000180: 309c 9c3b 2df2 e5bc a04b 62bb 401b 99ba
00000190: 291d 213d d071 4e3b 323c bd3c f30c 293d
000001a0: 19ea 453d c3e3 2b3d 3394 30bd 00ab e1bc
000001b0: 8067 923b e861 54bc 93bb f9bc b428 3fbc
000001c0: 60de c13a 5228 a93c dd91 2e3d a0d3 edba
000001d0: 0625 80bc 00b7 72bb da9e 0cbd 717c 453d
000001e0: add9 bcbc 3456 6e3c 2724 42bd 9a8d db3c
000001f0: 0074 7abb bd8c 45bd e8d9 c03b 001a 09bd
00000200: 34db 53bc 2d65 1b3d 605b 30bd 003a 23bb
00000210: 3254 c83c 6ab8 44bd 00eb c839 63cb 303d
00000220: a231 b43c b470 4dbc 0098 f73b 60f0 983a
00000230: 4d1a 373d 00ba 0abc 405f 033c 72d8 b93c
00000240: 57d0 223d 5d8a 3d3d 0641 843c 0093 d4bb
00000250: e6a1 87bc 7d44 013d 1827 f1bb 0246 f03c
00000260: c784 363d 7d33 0fbd 277c 34bd ce0e 993c
00000270: 20f3 01bd e8ee a2bb 6dc8 b9bc 0e3e d03c
00000280: 5c2f 783c 2927 023d 07d8 103d 8632 0ebd
00000290: e3c7 26bd ba6a 03bd 512f 433d 4cb6 7d3c
000002a0: b434 103c cc47 90bc ed70 c3bc 6d99 9abc
000002b0: 6a12 27bd 1ac4 e33c b06a 33bd 3aba adbc
000002c0: 4737 f6bc 020f 973c 07cb f7bc 34b0 16bc
000002d0: b053 d93b 27c9 0d3d ae78 873c 0ce1 3e3c
000002e0: 89ff 163d 93cd c4bc cdec cfbc 76d8 1bbd
000002f0: 43fd 433d a8cd 333c c381 1c3d 719a 2e3d
00000300: 1a8b febc 00cc 36b8 0d94 acbc 1a36 d13c
00000310: 02ec f53c 7d6c 09bd 6868 ce3b 538e bcbc
00000320: 470f aebc 426c ab3c d6fb 23bd 80f6 fab9
00000330: c067 d3bc d902 4b3d a65d 813c 9616 1abd
00000340: f284 b73c a0c1 7fbb e643 b93c 6c2f 92bc
00000350: 6859 863b 8263 df3c 601e fdbc 19ff 393d
00000360: 674d 133d 0070 a4bc 0023 39b9 a600 24bd
00000370: 1756 3d3d 2de0 33bd e761 f3bc 111e 093d
00000380: b3cc 273d 1056 3ebd 5d59 39bd ba94 ea3c
00000390: 6d6f 30bd 5278 903c 6841 a13b b912 133d
000003a0: e8df d7bb 6642 e33c 2d33 4abd e079 d9bc
000003b0: ae41 bf3c 0775 2f3d 9a78 af3c e8ad 16bc
000003c0: a69f 8cbc 0044 2dbd cecc d93c aab6 11bd
000003d0: 40a3 30ba 44f7 733c e6e0 ec3c daf0 cabc
000003e0: 57c0 023d 9783 323d c9ec 343d 87d9 293d
000003f0: 53ec 4b3d 9022 49bd 2808 5abc 8c3c 0ebc
-0.025954962 0.01026262 -0.006560087 0.018305335 0.048464667 -0.032181226 -0.0064184666 -0.034942497
0.03080101 -0.03050871 -0.017242622 -0.007811986 0.01399393 0.01598395 -0.013733089 -0.045806754
-0.0046427846 -0.005659722 -0.04935814 -0.017019331 -0.0041123405 0.037927102 0.044217598 -0.01806295
-0.037080966 -0.031644322 0.0181478 0.015903939 -0.039959215 0.039742056 -0.02935617 -0.023904169
0.0041106343 -0.040100716 -0.028456211 0.046866726 0.023954537 0.023285199 0.014661279 0.046186123
0.01960392 -0.009491265 -0.0157158 -0.0015108362 -0.040157042 -0.004039038 0.048148323 -0.040003218
0.020704877 -0.043570377 -0.011402488 -0.0049403682 -0.0008522384 0.00023235008 0.027308192 0.034945752
-0.044012476 -0.030950177 -0.04237895 0.018652905 0.005463384 0.03390039 0.046807956 -0.043809652
-0.020963622 -0.03640635 0.02563541 0.025274005 0.039272714 -0.01670643 0.008417379 0.026001263
0.012210824 0.012579452 0.018490408 -0.009628616 -0.0076772794 0.028573003 0.042279553 0.03076801
-0.012990214 0.036831427 -0.021653045 -0.024348367 0.016915504 0.0073900223 -0.038606383 0.047358546
0.02845991 0.00039775297 -0.035845388 -0.031309806 0.030918907 0.042327452 -0.031897567 -0.030271923
0.004779361 -0.02806958 -0.003452994 -0.0011681095 0.03933445 0.0031500943 0.023099992 0.041272115
0.048318956 0.041965257 -0.043110084 -0.02754736 0.0044679046 -0.012962796 -0.03048495 -0.011667419
0.0014791004 0.020649109 0.042619575 -0.0018144734 -0.015642654 -0.0037035346 -0.03433118 0.04821438
-0.023053015 0.01454692 -0.04739776 0.02680092 -0.0038216114 -0.04822992 0.0058853514 -0.03347206
-0.01293068 0.037938286 -0.043055892 -0.0024906397 0.02445421 -0.048027433 0.0003832206 0.043162715
0.021996323 -0.012539078 0.0075559616 0.0011668317 0.044702817 -0.008467197 0.008018315 0.022686217
0.03974947 0.04627453 0.016144287 -0.0064872503 -0.016556691 0.031559456 -0.0073593967 0.029330257
0.04456022 -0.034961212 -0.044063713 0.018683817 -0.031726003 -0.0049723275 -0.022678578 0.025420215
0.01514801 0.031775627 0.03536227 -0.03471615 -0.04071797 -0.032084204 0.047652546 0.0154853575
0.008801628 -0.01761236 -0.023857558 -0.018871987 -0.040789045 0.02780347 -0.043802917 -0.021206964
-0.030055655 0.018439773 -0.030248178 -0.009197284 0.006632291 0.034615662 0.016537037 0.011650335
0.03686479 -0.024023807 -0.02538147 -0.03804823 0.04784895 0.010974325 0.038209688 0.042627756
-0.031072188 -4.358217e-05 -0.02106669 0.025538493 0.030019764 -0.033550728 0.0062990673 -0.023017084
-0.02124752 0.020925645 -0.04003509 -0.00047867373 -0.025806308 0.049563263 0.015791725 -0.037619196
0.02240226 -0.0039025322 0.022615384 -0.017844878 0.0041000135 0.027269129 -0.030898273 0.045409296
0.03596249 -0.020072937 -0.00017656013 -0.04003968 0.04622468 -0.043914963 -0.02970977 0.03347594
0.0409667 -0.046468794 -0.04525124 0.028635371 -0.043075014 0.017635498 0.004921127 0.035906527
-0.006587971 0.027741622 -0.04936521 -0.026547372 0.023346748 0.042836215 0.021419812 -0.009196736
-0.01716597 -0.042301178 0.026586916 -0.035574593 -0.00067381933 0.014890496 0.028915834 -0.02477305
0.03192171 0.043582525 0.04417113 0.041467216 0.049785923 -0.049105227 -0.013307609 -0.008681428
